…
 'latent_entities': 128,
 'logs_dir': './logs/',
 'lr': 0.001,
 'max_seq_length': 256,
 'model_init': False,
 'solo': False,
 'split_rate': 0.8,
 'subtask_id': 'A',
 'test_batch_size': 8,
 'use_cuda': True,
 'use_multi_gpu': False,
 'with_cache': False,
 'with_complex': False,
 'with_gcnii': True,
 'with_gnn': True,
 'with_kegat': True,
 'with_kemb': True,
 'with_lm': True,
 'with_mps': True,
 'with_plm': True,
 'with_scl': True}
SCL_SOTA_goal_model_GNN_PLM_GCNII(
  (roberta): RobertaForMultipleChoiceWithLM(
    (roberta): RobertaModel(
      (embeddings): RobertaEmbeddings(
        (word_embeddings): Embedding(50265, 1024, padding_idx=1)
        (position_embeddings): Embedding(514, 1024, padding_idx=1)
        (token_type_embeddings): Embedding(1, 1024)
        (LayerNorm): LayerNorm((1024,), eps=1e-05, elementwise_affine=True)
        (dropout): Dropout(p=0.2, inplace=False)
      )
      (encoder): RobertaEncoder(
        (layer): ModuleList(
          (0-23): 24 x RobertaLayer(
            (attention): RobertaAttention(
              (self): RobertaSelfAttention(
                (query): Linear(in_features=1024, out_features=1024, bias=True)
                (key): Linear(in_features=1024, out_features=1024, bias=True)
                (value): Linear(in_features=1024, out_features=1024, bias=True)
                (dropout): Dropout(p=0.2, inplace=False)
              )
              (output): RobertaSelfOutput(
                (dense): Linear(in_features=1024, out_features=1024, bias=True)
                (LayerNorm): LayerNorm((1024,), eps=1e-05, elementwise_affine=True)
                (dropout): Dropout(p=0.2, inplace=False)
              )
            )
            (intermediate): RobertaIntermediate(
              (dense): Linear(in_features=1024, out_features=4096, bias=True)
              (intermediate_act_fn): GELUActivation()
            )
            (output): RobertaOutput(
              (dense): Linear(in_features=4096, out_features=1024, bias=True)
              (LayerNorm): LayerNorm((1024,), eps=1e-05, elementwise_affine=True)
              (dropout): Dropout(p=0.2, inplace=False)
            )
          )
        )
      )
      (pooler): RobertaPooler(
        (dense): Linear(in_features=1024, out_features=1024, bias=True)
        (activation): Tanh()
      )
    )
    (lm_head): RobertaLMHead(
      (dense): Linear(in_features=1024, out_features=1024, bias=True)
      (layer_norm): LayerNorm((1024,), eps=1e-05, elementwise_affine=True)
      (decoder): Linear(in_features=1024, out_features=50265, bias=True)
    )
    (dropout): Dropout(p=0.2, inplace=False)
    (classifier): Linear(in_features=1024, out_features=1, bias=True)
  )
  (gcnii): GAT_GCNII_latent_only(
    (gcnii_convs): ModuleList(
      (0-2): 3 x GraphConvolutionMPS(
        (IN): InstanceNorm1d(128, eps=1e-05, momentum=0.1, affine=True, track_running_stats=False)
        (graph1_inner_LN): LayerNormalization()
        (graph1_extern_LN): LayerNormalization()
        (graph2_inner_LN): LayerNormalization()
        (graph2_extern_LN): LayerNormalization()
      )
    )
    (gat_convs): ModuleList(
      (0-2): 3 x GATConv(128, 128, heads=1)
    )
    (gat_integrate): GATConv(256, 128, heads=1)
    (fcs): ModuleList(
      (0): Linear(in_features=300, out_features=128, bias=True)
      (1): Linear(in_features=128, out_features=128, bias=True)
    )
    (act_fn): ReLU()
    (fc_adaptive): Linear(in_features=128, out_features=1, bias=True)
    (fc1): Linear(in_features=128, out_features=1, bias=True)
  )
  (merge_fc1): Linear(in_features=1152, out_features=512, bias=True)
  (attn): SelfAttention(
    (query): Linear(in_features=512, out_features=512, bias=True)
    (key): Linear(in_features=512, out_features=512, bias=True)
    (value): Linear(in_features=512, out_features=512, bias=True)
    (dropout): Dropout(p=0, inplace=False)
  )
  (fc3): Linear(in_features=1536, out_features=1, bias=True)
  (dropout): Dropout(p=0.2, inplace=False)
)
with_LM:  Yes
with_KEGAT:  Yes
with_KEmb:  Yes
Processing the dataset:arc_easy
graph init...
load conceptnet numberbatch:  516782 300
load conceptnet numberbatch done!
merge graph by downgrade...
reduce graph noise...
encode graph...
compute adj matrix...
compute adj matrix done!
compute the expm adj matrix
compute the expm adj matrix done!
…
